models/best_query_classifier.pt (torch, 201833 bytes, 4 tensors)

fc1.weight f4 [128, 384]
00000000: 8210 1bbd 9b88 153d 61e2 0b3b a49d 923d
00000010: b484 babd e9db 5dbc cb4c 873d 308a 4fbc
00000020: ab88 2dbd 9e28 6dbc 6d22 8d3c 022d 9f3c
00000030: b111 8b3c 23eb 433d 8155 3c3b fdf0 e33d
00000040: 0a73 f2ba edd7 73bd ae36 cfbd be32 463c
00000050: 1304 9dbd 9d15 b6bc be07 ce3d c25c 923c
00000060: d14a 14be ff96 26bd a6d4 093e f2ce b43d
00000070: e095 ce3d 31e8 d4bd da2d 53bd 3590 df3d
00000080: f853 4638 d4ed 47bc 6442 c33d 6bdc 4fbd
00000090: d75e a13c e779 23bd 34be 173d 37ad 933c
000000a0: a3db 2e3d 353b 7c3b 1545 18bc 0e5e 65bd
000000b0: e350 f8bb 5869 793b 4cf5 cf3c f9f8 b93d
000000c0: bffc 9e3c a30e fa3c f8be 8bbd 6d07 d7bd
000000d0: 1a48 4fbd d1ee 0ebd 181e 5b3d 9107 ea3d
000000e0: 7344 56bd b0a1 e3bd 0bf1 803d 3877 443c
000000f0: 7808 053e b6b4 393d 9334 bfbd 870f 503c
00000100: 444d 563d 474e b1bd 8966 c8bd 4a17 d3bc
00000110: c6b0 fe3c 0541 b4bc 638e 213d 49fb dd3c
00000120: 1729 1c3c 3032 7dbd 9f12 ea3d 90f1 893d
00000130: 8684 a4bd ca09 edbd 0eb7 b83d 9cb8 283d
00000140: a995 14bd f5d3 bebc af18 37bd bd44 b33c
00000150: a19d 99bd 91c5 2fbd 22e3 a73c eef8 ad3c
00000160: c47d a2bd e794 2f3c c1d4 eabc fea9 8c3c
00000170: bc5a bf3c e5ab 96bd b410 febd 05c6 d4bd
00000180: a7a5 fd3d 9f5c 1e3d 670d d9bd 9003 f43d
00000190: 6dae a13d 2e9d 2d3c 13c9 12bb 26da e03d
000001a0: 2df6 b7bd aea7 e2bc 56f9 bfbd 99a6 d43d
000001b0: 27ec b5bd 193d 0c3d 63d0 71bd f6f5 753d
000001c0: ceb4 70bb 2b02 573d e433 803d 09e7 473d
000001d0: 2ba4 b7bd d57f 933d 5a74 973d deb7 8fbd
000001e0: f978 db3d 7945 02bd 907f d73c 12af 203d
000001f0: 7888 703c 4a88 1fbd d6e1 3e3d 808c d93c
00000200: a8cd 013d e5a7 963c b7c5 b4ba 71cc d03c
00000210: 847a 7a3d 3114 b6bb 9293 803c f768 94bd
00000220: 205f 223c 9680 993d 271a 103d 262e a43d
00000230: 3332 ee3c f2e2 b23b 8295 933d f17b 5b3d
00000240: 8041 7b3d c65f 933d 605c a6bd afb6 dcbc
00000250: 0d1a 59bd 9d19 e03c cef2 97bc d53d b13d
00000260: 6af4 d43c b93b f5bd 85b5 87bd 444c 0bbe
00000270: 3300 de3d 0fe5 9e3d c008 96bc 5624 b7bb
00000280: ac91 35bd b152 aa3d cb40 bc3c 2d44 a0bd
00000290: e48e 4ebd 4540 3dbd dd18 ccbd 594b c23c
000002a0: 4331 5cbd 6c89 1c3d f4d3 f93c 0e4f a8bc
000002b0: d6ab 96bc 0925 89bc ddac 4abc 6903 913d
000002c0: d782 57bc d230 a23c 594f a5bd 514a 34bb
000002d0: 16e4 11be 67b7 d73c 4da4 63bd 6437 29bc
000002e0: 8a44 79bd cedb b83c f790 5e3c a64e 6b3d
000002f0: 4cdd 8c3b 55d5 cb3d 1f30 f8bc 842b c8bd
00000300: 8999 85bd 2f0c 673d 25d5 d03d e524 1cbc
00000310: a6f1 2b3d d061 94bd a771 f6bc 40cf 323d
00000320: 8429 8b3d c149 fe3d c506 463c 6436 47bc
00000330: 7c73 323b bb7d 0c3d 8e63 bb3d 6be6 a5bc
00000340: 0cdb 6d3c 6ca5 bd3b ad59 03bb f6cd a23d
00000350: 15f6 493d 8995 8d3d 1eec 803d 52af a9bd
00000360: c243 a7bb 9555 0a3d 7de1 52bd ed9e 453d
00000370: d6fb ef3d 4737 413d 75f3 dfbc 487f aabc
00000380: a4cc 843c c4c7 133d f4a8 24bc 264c 8f3d
00000390: e772 ca3c ec83 a33d 68ab 713d 49bd 73bc
000003a0: 0d33 85bc 472c 6dbb 061b 8b3d 515f 8cbd
000003b0: 261b c1bc 7c89 92bd ffe0 cfbc de60 9c3d
000003c0: 465c 913d 216e 70bd 6d67 99bd 46aa dd3c
000003d0: a3ed 93bc 7e32 6b3d 6a7a 6ebc 9244 05bc
000003e0: 5b21 8fbd 159b 913d dfac 41bc 9fbd e03d
000003f0: 17ff cbbd 415e 433d 09f1 c43d afdf 8b3b
-0.03785754 0.03650723 0.002134465 0.07158974 -0.09107342 -0.0135412 0.06606444 -0.012667224
-0.042366665 -0.014475016 0.01722833 0.019430641 0.01697621 0.047831666 0.0028737488 0.11129949
-0.0018497419 -0.059532095 -0.10117851 0.012097059 -0.07666793 -0.022227103 0.100600705 0.017866496
-0.14481665 -0.040671345 0.13460025 0.08828534 0.1008718 -0.103958495 -0.0515574 0.10916177
4.728508e-05 -0.012202699 0.095341474 -0.050747316 0.019698543 -0.039911177 0.037046626 0.018026931
0.04268993 0.0038487439 -0.009293814 -0.0559979 -0.007578002 0.0038057175 0.025385521 0.09080691
0.019407628 0.030524557 -0.06823534 -0.10499463 -0.05060587 -0.03489572 0.053495497 0.114272244
-0.052311372 -0.11114824 0.06295975 0.011991315 0.12991512 0.045338355 -0.093361996 0.0126990145
0.05231978 -0.08657508 -0.09785182 -0.025767941 0.031090152 -0.02200366 0.03944243 0.027097361
0.009531281 -0.06181544 0.11429333 0.067355275 -0.08033089 -0.11574133 0.0901929 0.041191682
-0.03627554 -0.023294428 -0.044701274 0.021883363 -0.075007685 -0.042913023 0.020494048 0.021236863
-0.07934144 0.010716653 -0.028665902 0.017170902 0.023358695 -0.07357005 -0.124055296 -0.10389332
0.12385111 0.03866255 -0.105982594 0.11914742 0.07894597 0.010596557 -0.0022397682 0.109791085
-0.08982501 -0.027667847 -0.09373729 0.103833385 -0.08882933 0.034237955 -0.059036624 0.06004902
-0.0036728862 0.052492302 0.06259897 0.048804317 -0.089668594 0.072021164 0.07395239 -0.07017492
0.10716433 -0.031804536 0.026305944 0.03922946 0.014680974 -0.038948335 0.046602093 0.026556253
0.03169027 0.018390605 -0.0013791834 0.02548811 0.061151996 -0.005556606 0.015695367 -0.07246583
0.009910375 0.07495229 0.03518119 0.080166146 0.029076671 0.005459183 0.07206251 0.053584997
0.061341763 0.07196002 -0.08123088 -0.02694258 -0.05300336 0.027355963 -0.018548395 0.08654372
0.025995452 -0.11974282 -0.06626419 -0.13603312 0.10839882 0.07758533 -0.01831472 -0.0055890484
-0.044328377 0.083165534 0.022980114 -0.078255035 -0.05042924 -0.04620387 -0.0996568 0.02371757
-0.053757917 0.038216993 0.030496575 -0.020545509 -0.018392485 -0.016741293 -0.012370315 0.070807286
-0.013153753 0.01979867 -0.08071775 -0.0027510116 -0.14247164 0.02633257 -0.05557661 -0.010328148
-0.06085638 0.022565749 0.013584367 0.057448052 0.0042988416 0.09952799 -0.030296383 -0.09773925
-0.06523425 0.056408104 0.10196904 -0.009530281 0.0419785 -0.07245219 -0.03008349 0.04365468
0.06795028 0.12416411 0.012086575 -0.012158964 0.0027229479 0.034299593 0.09149848 -0.020251473
0.014517557 0.005787542 -0.0020042465 0.0794944 0.049306948 0.06913287 0.06295036 -0.08285393
-0.005104513 0.033773024 -0.051484574 0.048247267 0.11717956 0.047171857 -0.027337769 -0.020812646
0.016210862 0.036079183 -0.010050047 0.06996946 0.024712993 0.079841465 0.059001356 -0.014876672
-0.016259694 -0.0036189721 0.06792264 -0.06854118 -0.023572516 -0.07155129 -0.025375841 0.076356634
0.07097678 -0.058698777 -0.0749043 0.027058732 -0.01805765 0.0574212 -0.014555553 -0.008134024
-0.06988784 0.07109658 -0.011821001 0.10973667 -0.09960764 0.04769731 0.09616286 0.0042686085

fc1.bias f4 [128]
00000000: bfc6 963d fb6a 9c3d 1dba c73d 4109 783d
00000010: dc09 6b3c 20d9 cc3d cf3a 9b3d 8604 273d
00000020: 29a4 e43d 171f 5c3c a4bb f03c 11c4 873d
00000030: cb02 903d ad9a 4d3d 1fce 893d a89f 963d
00000040: 05de 6bbd b4fd 8e3d 9526 883d f9f7 563d
00000050: e463 803d 674b d63c f9ce a03d 4c51 273d
00000060: de2d 4d3d ec5c 453d 3d8b 473d 914e 263d
00000070: bb53 383d be06 a03d 954c 8b3d 9471 923d
00000080: bd41 db3d 4338 c33d 5bab b43c 043d b73d
00000090: 5e50 663d c34e b53d 6b68 a93d 644f 48bd
000000a0: c4bf 55bd 2239 ae3c 9205 863d e3c6 813d
000000b0: 8b95 463d 706c cc3d 960c 443d 94cb 9e3d
000000c0: 9435 d53d 81eb dc3d 024a 183d c744 c73d
000000d0: 5da7 d53d 7794 bd3c b7e4 053d b4e7 ad3d
000000e0: 7393 ea3d 6926 9d3d 34a3 9d3d 8865 853d
000000f0: 66e5 9c3d 3bc0 133d 6a0c 5b3c 5af7 b43d
00000100: bd92 b33d 14ab a43d bae6 573d a682 d93c
00000110: 30cf ecbc 2073 f33c f5fc 943d 7795 4ebd
00000120: 3b09 08bd 4102 903d 76b4 bf3d 3846 893d
00000130: e7c1 8a3d 1dca ba3d 661a cd3d 17ad 9d3d
00000140: 58a5 68bd 7310 343d ba72 5b3d cb93 953d
00000150: 2e1d 523d 2246 b93d eec5 af3d 09a1 8a3d
00000160: 30a1 983d 982c 753d 03cd 633d a573 4ebd
00000170: 7da9 8f3d f30d c03d 5292 913d fe37 933d
00000180: 5a8d 8b3d 772f 913d df35 e1bc c324 923d
00000190: bb86 32bd 706c 103e d8c3 1fbd 2644 aa3d
000001a0: 86f8 a63d 0cfc 013d 5ca7 e73d 11b0 a73d
000001b0: 2073 ab3d 1e66 213d 61b7 9e3d 164c 8b3d
000001c0: 1a73 5ebd c98e a73c 3c30 e03d 5e86 173d
000001d0: 2044 aa3d e5c4 4abd b0cb bd3d 84c6 9b3c
000001e0: 1aa0 9c3d b13f 4f3d 9664 8c3d f3b3 2e3d
000001f0: 9341 883d 95e8 aa3d 6975 bd3d 0b86 863d
0.073621266 0.076375924 0.09752295 0.0605557 0.014345612 0.10002351 0.07579576 0.0407758
0.111641236 0.013435147 0.029386349 0.066291936 0.07031783 0.05019634 0.067287676 0.07354671
-0.05758478 0.06981984 0.06647984 0.05248258 0.062690526 0.026159002 0.07851977 0.040849015
0.05009257 0.04818432 0.048716772 0.04060227 0.045001727 0.07813786 0.06801716 0.071505696
0.10705898 0.095322154 0.022054365 0.08947185 0.056228988 0.08852913 0.08271869 -0.048903838
-0.052184835 0.021267477 0.06544031 0.06336763 0.04848246 0.0998162 0.047863565 0.07753673
0.1041061 0.10787106 0.037179954 0.09729915 0.10432313 0.023142083 0.032688823 0.084914595
0.11453905 0.07673342 0.07697144 0.06513506 0.07660942 0.036071997 0.013369659 0.08836241
0.087682225 0.08040443 0.052710272 0.026551556 -0.028907388 0.029717982 0.0727481 -0.05043551
-0.033211928 0.0703168 0.09360592 0.06702846 0.06775265 0.09120581 0.10014801 0.0769903
-0.05679831 0.043961 0.05357621 0.0730358 0.05129736 0.0904658 0.08582674 0.06768996
0.07452619 0.05985698 0.055615436 -0.050403256 0.07014749 0.093776606 0.071079865 0.07188414
0.0681407 0.07089131 -0.027491508 0.07135918 -0.04358552 0.14103866 -0.03900513 0.083137795
0.08152871 0.03173451 0.11311218 0.08187879 0.08371568 0.039404027 0.077498205 0.068016216
-0.05430899 0.020453827 0.109467 0.036993377 0.08313775 -0.04950418 0.09267366 0.019015558
0.076477244 0.05059785 0.06855123 0.04265208 0.06653132 0.08345143 0.0925091 0.065685354

fc2.weight f4 [4, 128]
00000000: 8a10 343e 264c 0f3e 7000 59be 5576 243e
00000010: b0fd 32be e2fa f1bd 0ea7 5cbe 0052 f1bd
00000020: 1cae eebd 1c6d 3abe f3c5 f9bd 0e50 afbc
00000030: 757e e73d b7fe 54be ab0e 4bbe 5950 6bbb
00000040: 8298 323d 9b46 41be 4e88 06be 2731 59be
00000050: e6a3 67be 13d1 1abe de4d 2c3d a22c f1bd
00000060: 7fdd 2f3e f153 3f3e c4c7 c1bd 41db b83d
00000070: 9b10 28be 8419 2cbe 6143 c3bd e728 ee3d
00000080: 24f2 153e 43f2 6d3d 911f 963c e617 3cbe
00000090: 03d6 60be 378d 233e fedc 303d 0f6a 7fbd
000000a0: a26c 84bd 651a 39be 40a1 513e 5362 e73d
000000b0: 8fd3 c4bc 79cd c9bd 01bf 23be 4108 543d
000000c0: fd99 3fbd b1a0 093e 955e 6bbe 20d2 3bbe
000000d0: 3962 c6bd 1d98 22be ca31 53be 231b 2fbe
000000e0: 89b1 343e 3b92 1d3e 3084 223e 5b27 2a3e
000000f0: 5e5a 153d a32d 063e ae00 59be ecd5 44be
00000100: 9048 ce3c 4120 b1bd c62e 4bbe 55da 0abe
00000110: 08f5 84bc 12e5 34be fc60 713c 424e 64bd
00000120: bb63 7fbd 3451 2ebe e2ad 4ebe 04f7 08bd
00000130: e8af 92bd fe2e 22be 2889 023e 928c 023e
00000140: ec24 233d 9429 dabd 0f9a 59be e881 af3d
00000150: 4da2 48be ef11 e83d e305 14be 5f9c 1ebe
00000160: 1c14 d5bd 7418 56be 65f1 40bd 5522 393d
00000170: 4f62 1fbe 04a7 0fbe 63ef 0f3e 8324 01bd
00000180: 74db 573e a72d 83be 8fea 5bbd 0f89 1bbe
00000190: 58ad 4abc 0829 aa3b 67dc 76bd 1a6a dfbd
000001a0: 1122 06be ce28 26be 0445 0e3e b0c7 b33d
000001b0: cceb d03d 9f4b d9bd ccaf 223e e7a0 373e
000001c0: e1c1 153d 9678 3abe 0af7 39be 76bf 28be
000001d0: 19e7 2dbe e9e8 a33c 9fc1 36bc 9903 40be
000001e0: c460 993d a4d7 00be d3ea ecbd bd44 64be
000001f0: 6eeb 2c3e 99ed 273e 7219 5abe e2aa ba3d
00000200: 8f10 4fbe 8173 ae3d c8e9 e33d 8df8 cd3d
00000210: 88f6 58be d6ef 923d 288c 103d 1d1d 423e
00000220: c4a8 033e facd c53d 188a 00be 6f20 2abd
00000230: cdba 4bbe 7ff5 35be 34b7 2a3e 63f4 1dbe
00000240: 39a5 933d 08a6 e43d b7a8 2a3e 7fc7 9e3d
00000250: 466c f23d 3096 643e 75fc 2fbe 1f32 2cbe
00000260: 7204 5cbe b44d babd 4c48 06be c296 5cbe
00000270: 1ae1 41be aca7 f7bd 800b 0cbe 27a3 963d
00000280: 0633 273e dcdc 26be 5855 0dbe 7e2e 1dbe
00000290: 22ef 473e 5992 d8bc 53ba 4fbe 2bf6 a53d
000002a0: e51a 5d3b 4998 4cbe 4eb9 33bd 1c95 433e
000002b0: c8d0 143e bc9c 0d3e a05c 3fbe 7a67 1a3e
000002c0: 4356 3d3e bff7 b0bd a943 d73d 641f 863d
000002d0: 0506 2f3e 3b24 4dbe 5ced 3fbe 8817 a6bd
000002e0: 6050 463c b90b adbd ec5a 1b3c c7e3 e7bd
000002f0: 13f7 1dbd 6365 63be f7e7 1dbe 3bb9 143e
00000300: bb71 70be 168e dfbd 3012 2b3e a476 41be
00000310: 46dd 0c3d 2e87 81be daf1 063e 729b 2dbd
00000320: a086 7d3c 399a 353e 5713 2b3e c5a6 303e
00000330: 281d 4cbe e19b 23be dc1a 1bbe aec3 1cbc
00000340: 0d77 bbbc b7ad dcbd 9461 afbd 41f1 40be
00000350: c1a8 4abe 8428 113d 0b1c ecbc 9096 3b3e
00000360: fce2 4abd f874 383e af9c 10be d967 89bd
00000370: 48a8 193e ff52 a03d 63df 59be 31f3 08be
00000380: ff5b 57be 1cbe 863c a1c3 903d 31a8 24be
00000390: b64a 94bc 9661 63bd 5c85 32bd 8afd 3b3e
000003a0: 63f1 353e 9dea 0dbd b683 adbb 5d24 1dbe
000003b0: 21c2 52be 7e98 f7bd 38d2 06be 19ea 31bd
000003c0: 41c5 36bd 1030 1abe c258 bd3d 7525 43be
000003d0: a2aa f6bd 5074 223d 52d7 2b3d 3bdd 45be
000003e0: 138a 2b3e 89fd 513e 70e0 00be 5d0f 12be
000003f0: f0d4 43be 011d 26be afbc e83d 2dda 00be
0.17584434 0.13993892 -0.21191573 0.16060765 -0.17479587 -0.1181543 -0.21548101 -0.117832184
-0.116543025 -0.18205684 -0.12195959 -0.021400478 0.11303417 -0.20800291 -0.19829814 -0.0035906045
0.043602474 -0.1887459 -0.13137934 -0.21210156 -0.22621116 -0.15118818 0.042066447 -0.11776091
0.17174338 0.18684365 -0.094619304 0.09026194 -0.16412584 -0.16806608 -0.09534336 0.11628895
0.1464315 0.058092367 0.018325599 -0.18368492 -0.21956639 0.15971838 0.043179505 -0.062357005
-0.064660326 -0.18076475 0.20471668 0.11298051 -0.02402666 -0.09853644 -0.15990831 0.051765684
-0.046777714 0.13440205 -0.22985299 -0.18341875 -0.09686703 -0.15878339 -0.20624462 -0.17100196
0.1764585 0.15387814 0.15870738 0.16616575 0.036463134 0.13103347 -0.21191666 -0.1922223
0.025181085 -0.0864873 -0.19842061 -0.1355985 -0.016230121 -0.17665508 0.0147325955 -0.055738695
-0.06235097 -0.17023164 -0.20183519 -0.033438697 -0.07162458 -0.15838239 0.12747633 0.12748936
0.039830133 -0.10652462 -0.21250175 0.085696995 -0.19593163 0.113315456 -0.1445537 -0.15489338
-0.10404226 -0.20907766 -0.04710521 0.045198757 -0.15564846 -0.14028555 0.14056163 -0.03152896
0.21079808 -0.25620767 -0.05369049 -0.15189002 -0.01237043 0.0051928796 -0.060268786 -0.10908909
-0.13098933 -0.16226503 0.13893515 0.08778322 0.10201225 -0.10610127 0.15887374 0.17932473
0.03656185 -0.18210062 -0.18160644 -0.16479287 -0.16982688 0.020008521 -0.011154561 -0.18751372
0.0748916 -0.1258226 -0.11568227 -0.22291847 0.16886684 0.1639923 -0.21298769 0.091146246
-0.2022116 0.08518124 0.111285746 0.10057173 -0.21187794 0.07174651 0.035289913 0.18956418
0.12857348 0.096584275 -0.12552679 -0.041534837 -0.19895478 -0.1776943 0.16671449 -0.15425257
0.07209248 0.111644804 0.16665922 0.077528946 0.11837058 0.22322917 -0.17186148 -0.16815995
-0.21486071 -0.09096852 -0.13113517 -0.21541885 -0.18933526 -0.12092528 -0.13676262 0.073553376
0.16328058 -0.16295189 -0.13802087 -0.15349767 0.19524816 -0.026436972 -0.20285921 0.081035934
0.0033737954 -0.19979967 -0.043877892 0.1909985 0.14532769 0.1382932 -0.18687677 0.15078536
0.18489937 -0.08641004 0.10510952 0.06548956 0.1709214 -0.20033352 -0.18742889 -0.08109957
0.012104124 -0.084495015 0.009482127 -0.11322742 -0.038565706 -0.22206645 -0.15420519 0.14523785
-0.23480885 -0.109157726 0.16706157 -0.18892914 0.03439071 -0.25298446 0.13178197 -0.042384572
0.015473992 0.17734613 0.16706596 0.17251118 -0.19932997 -0.15977432 -0.15146965 -0.009568138
-0.022883916 -0.10775321 -0.085635334 -0.18842031 -0.19790937 0.03543903 -0.028821966 0.18319154
-0.049532875 0.1801337 -0.1412227 -0.067092605 0.150056 0.0782833 -0.21276622 -0.1337402
-0.21031187 0.016448073 0.07068563 -0.16079785 -0.018102031 -0.055512987 -0.043584213 0.18358436
0.17767863 -0.034647573 -0.005295242 -0.15345903 -0.20581867 -0.120896325 -0.1316613 -0.043436144
-0.04462171 -0.15057397 0.09245445 -0.19057257 -0.120442644 0.039661705 0.041953392 -0.19322674
0.1675189 0.20506872 -0.12585616 -0.14263673 -0.19124198 -0.16222002 0.113641135 -0.12583227

fc2.bias f4 [4]
00000000: 96aa a03d 1c43 8c3c f951 aa3a 396f 813d
0.07845037 0.017121844 0.00129944 0.06320042
